…
<pre><code>Traceback (most recent call last):  File &quot;&lt;stdin&gt;&quot;, line 1, in &lt;module&gt;ImportError: No module named cv2</code></pre><p>site-packages路径设置问题<br>输入命令:   </p><pre><code>export PYTHONPATH=/usr/local/lib/python2.7/site-packages:$PYTHONPATH    </code></pre><h2>2.Segmentation fault: 11</h2><p>按照<a href="https://pjreddie.com/darknet/yolo/" target="_blank" rel="noopener">官网上使用yolo</a>的步骤，执行  </p><pre><code>./darknet detect cfg/yolo.cfg yolo.weights data/dog.jpg</code></pre><p>输出:   </p><blockquote><p>layer     filters    size              input                output   0 conv     32  3 x 3 / 1   608 x 608 x   3   -&gt;   608 x 608 x  32   1 max          2 x 2 / 2   608 x 608 x  32   -&gt;   304 x 304 x  32   2 conv     64  3 x 3 / 1   304 x 304 x  32   -&gt;   304 x 304 x  64   3 max          2 x 2 / 2   304 x 304 x  64   -&gt;   152 x 152 x  64   4 conv    128  3 x 3 / 1   152 x 152 x  64   -&gt;   152 x 152 x 128   5 conv     64  1 x 1 / 1   152 x 152 x 128   -&gt;   152 x 152 x  64   6 conv    128  3 x 3 / 1   152 x 152 x  64   -&gt;   152 x 152 x 128   7 max          2 x 2 / 2   152 x 152 x 128   -&gt;    76 x  76 x 128   8 conv    256  3 x 3 / 1    76 x  76 x 128   -&gt;    76 x  76 x 256   9 conv    128  1 x 1 / 1    76 x  76 x 256   -&gt;    76 x  76 x 128  10 conv    256  3 x 3 / 1    76 x  76 x 128   -&gt;    76 x  76 x 256  11 max          2 x 2 / 2    76 x  76 x 256   -&gt;    38 x  38 x 256  12 conv    512  3 x 3 / 1    38 x  38 x 256   -&gt;    38 x  38 x 512  13 conv    256  1 x 1 / 1    38 x  38 x 512   -&gt;    38 x  38 x 256  14 conv    512  3 x 3 / 1    38 x  38 x 256   -&gt;    38 x  38 x 512  15 conv    256  1 x 1 / 1    38 x  38 x 512   -&gt;    38 x  38 x 256  16 conv    512  3 x 3 / 1    38 x  38 x 256   -&gt;    38 x  38 x 512  17 max          2 x 2 / 2    38 x  38 x 512   -&gt;    19 x  19 x 512  18 conv   1024  3 x 3 / 1    19 x  19 x 512   -&gt;    19 x  19 x1024  19 conv    512  1 x 1 / 1    19 x  19 x1024   -&gt;    19 x  19 x 512  20 conv   1024  3 x 3 / 1    19 x  19 x 512   -&gt;    19 x  19 x1024  21 conv    512  1 x 1 / 1    19 x  19 x1024   -&gt;    19 x  19 x 512  22 conv   1024  3 x 3 / 1    19 x  19 x 512   -&gt;    19 x  19 x1024  23 conv   1024  3 x 3 / 1    19 x  19 x1024   -&gt;    19 x  19 x1024  24 conv   1024  3 x 3 / 1    19 x  19 x1024   -&gt;    19 x  19 x1024  25 route  16  26 conv     64  1 x 1 / 1    38 x  38 x 512   -&gt;    38 x  38 x  64  27 reorg              / 2    38 x  38 x  64   -&gt;    19 x  19 x 256  28 route  27 24  29 conv   1024  3 x 3 / 1    19 x  19 x1280   -&gt;    19 x  19 x1024  30 conv    425  1 x 1 / 1    19 x  19 x1024   -&gt;    19 x  19 x 425  31 detectionLoading weights from yolo.weights…Done!data/dog.jpg: Predicted in 12.558990 seconds.dog: 82%truck: 65%bicycle: 85%Segmentation fault: 11</p></blockquote><p>报错: <strong>Segmentation fault: 11</strong><br>并且在目录中未出现已识别的图片 </p><p></p><h2>解决办法:</h2><p></p><h3>1.更改Makefile:</h3>   <p>将opencv部分修改为如下代码:(分别修改COMMON/LDFLAGS)  </p><pre><code>ifeq ($(O
…
